name: "CVPlacesNet"
input: "data_a"
input_dim: 1
input_dim: 3
input_dim: 227 
input_dim: 227


layers {
  name: "conv1_a"
  type: CONVOLUTION
  bottom: "data_a"
  top: "conv1_a"
  convolution_param {
    num_output: 96
    kernel_size: 11
    stride: 4
  }
}
layers {
  name: "relu1_a"
  type: RELU
  bottom: "conv1_a"
  top: "conv1_a"
}
layers {
  name: "pool1_a"
  type: POOLING
  bottom: "conv1_a"
  top: "pool1_a"
  pooling_param {
    pool: MAX
    kernel_size: 3
    stride: 2
  }
}
layers {
  name: "norm1_a"
  type: LRN
  bottom: "pool1_a"
  top: "norm1_a"
  lrn_param {
    local_size: 5
    alpha: 0.0001
    beta: 0.75
  }
}
layers {
  name: "conv2_a"
  type: CONVOLUTION
  bottom: "norm1_a"
  top: "conv2_a"
  convolution_param {
    num_output: 256
    pad: 2
    kernel_size: 5
    group: 2
  }
}
layers {
  name: "relu2_a"
  type: RELU
  bottom: "conv2_a"
  top: "conv2_a"
}
layers {
  name: "pool2_a"
  type: POOLING
  bottom: "conv2_a"
  top: "pool2_a"
  pooling_param {
    pool: MAX
    kernel_size: 3
    stride: 2
  }
}
layers {
  name: "norm2_a"
  type: LRN
  bottom: "pool2_a"
  top: "norm2_a"
  lrn_param {
    local_size: 5
    alpha: 0.0001
    beta: 0.75
  }
}
layers {
  name: "conv3_a"
  type: CONVOLUTION
  bottom: "norm2_a"
  top: "conv3_a"
  convolution_param {
    num_output: 384
    pad: 1
    kernel_size: 3
  }
}
layers {
  name: "relu3_a"
  type: RELU
  bottom: "conv3_a"
  top: "conv3_a"
}
layers {
  name: "conv4_a"
  type: CONVOLUTION
  bottom: "conv3_a"
  top: "conv4_a"
  convolution_param {
    num_output: 384
    pad: 1
    kernel_size: 3
    group: 2
  }
}
layers {
  name: "relu4_a"
  type: RELU
  bottom: "conv4_a"
  top: "conv4_a"
}
layers {
  name: "conv5_a"
  type: CONVOLUTION
  bottom: "conv4_a"
  top: "conv5_a"
  convolution_param {
    num_output: 256
    pad: 1
    kernel_size: 3
    group: 2
  }
}
layers {
  name: "relu5_a"
  type: RELU
  bottom: "conv5_a"
  top: "conv5_a"
}
layers {
  name: "pool5_a"
  type: POOLING
  bottom: "conv5_a"
  top: "pool5_a"
  pooling_param {
    pool: MAX
    kernel_size: 3
    stride: 2
  }
}
layers {
  name: "fc6_a"
  type: INNER_PRODUCT
  bottom: "pool5_a"
  top: "fc6_a"
  inner_product_param {
    num_output: 4096
  }
}
layers {
  name: "relu6_a"
  type: RELU
  bottom: "fc6_a"
  top: "fc6_a"
}
layers {
  name: "drop6_a"
  type: DROPOUT
  bottom: "fc6_a"
  top: "fc6_a"
  dropout_param {
    dropout_ratio: 0.5
  }
}
layers {
  name: "fc7_a"
  type: INNER_PRODUCT
  bottom: "fc6_a"
  top: "fc7_a"
  inner_product_param {
    num_output: 4096
  }
}
layers {
  name: "relu7_a"
  type: RELU
  bottom: "fc7_a"
  top: "fc7_a"
}
layers {
  name: "drop7_a"
  type: DROPOUT
  bottom: "fc7_a"
  top: "fc7_a"
  dropout_param {
    dropout_ratio: 0.5
  }
}
layers {
  name: "fc8_a"
  type: INNER_PRODUCT
  bottom: "fc7_a"
  top: "fc8_a"
  inner_product_param {
    num_output: 205 
  }
}
