name: "MCVPlacesNet"
input: "data_a"
input_dim: 32 
input_dim: 3
input_dim: 227 
input_dim: 227
input: "data_b"
input_dim: 32 
input_dim: 3
input_dim: 227 
input_dim: 227
input: "data_c"
input_dim: 32 
input_dim: 3
input_dim: 227 
input_dim: 227


layers {
  name: "conv1_a"
  type: CONVOLUTION
  bottom: "data_a"
  top: "conv1_a"
  blobs_lr: 1
  blobs_lr: 2
  weight_decay: 1
  weight_decay: 0
  convolution_param {
    num_output: 96
    kernel_size: 11
    stride: 4
    weight_filler {
      type: "gaussian"
      std: 0.01
    }
    bias_filler {
      type: "constant"
      value: 0
    }
  }
}
layers {
  name: "relu1_a"
  type: RELU
  bottom: "conv1_a"
  top: "conv1_a"
}
layers {
  name: "pool1_a"
  type: POOLING
  bottom: "conv1_a"
  top: "pool1_a"
  pooling_param {
    pool: MAX
    kernel_size: 3
    stride: 2
  }
}
layers {
  name: "norm1_a"
  type: LRN
  bottom: "pool1_a"
  top: "norm1_a"
  lrn_param {
    local_size: 5
    alpha: 0.0001
    beta: 0.75
  }
}
layers {
  name: "conv2_a"
  type: CONVOLUTION
  bottom: "norm1_a"
  top: "conv2_a"
  blobs_lr: 1
  blobs_lr: 2
  weight_decay: 1
  weight_decay: 0
  convolution_param {
    num_output: 256
    pad: 2
    kernel_size: 5
    group: 2
    weight_filler {
      type: "gaussian"
      std: 0.01
    }
    bias_filler {
      type: "constant"
      value: 1
    }
  }
}
layers {
  name: "relu2_a"
  type: RELU
  bottom: "conv2_a"
  top: "conv2_a"
}
layers {
  name: "pool2_a"
  type: POOLING
  bottom: "conv2_a"
  top: "pool2_a"
  pooling_param {
    pool: MAX
    kernel_size: 3
    stride: 2
  }
}
layers {
  name: "norm2_a"
  type: LRN
  bottom: "pool2_a"
  top: "norm2_a"
  lrn_param {
    local_size: 5
    alpha: 0.0001
    beta: 0.75
  }
}
layers {
  name: "conv3_a"
  type: CONVOLUTION
  bottom: "norm2_a"
  top: "conv3_a"
  blobs_lr: 1
  blobs_lr: 2
  weight_decay: 1
  weight_decay: 0
  convolution_param {
    num_output: 384
    pad: 1
    kernel_size: 3
    weight_filler {
      type: "gaussian"
      std: 0.01
    }
    bias_filler {
      type: "constant"
      value: 0
    }
  }
}
layers {
  name: "relu3_a"
  type: RELU
  bottom: "conv3_a"
  top: "conv3_a"
}
layers {
  name: "conv4_a"
  type: CONVOLUTION
  bottom: "conv3_a"
  top: "conv4_a"
  blobs_lr: 1
  blobs_lr: 2
  weight_decay: 1
  weight_decay: 0
  convolution_param {
    num_output: 384
    pad: 1
    kernel_size: 3
    group: 2
    weight_filler {
      type: "gaussian"
      std: 0.01
    }
    bias_filler {
      type: "constant"
      value: 1
    }
  }
}
layers {
  name: "relu4_a"
  type: RELU
  bottom: "conv4_a"
  top: "conv4_a"
}
layers {
  name: "conv5_a"
  type: CONVOLUTION
  bottom: "conv4_a"
  top: "conv5_a"
  blobs_lr: 1
  blobs_lr: 2
  weight_decay: 1
  weight_decay: 0
  convolution_param {
    num_output: 256
    pad: 1
    kernel_size: 3
    group: 2
    weight_filler {
      type: "gaussian"
      std: 0.01
    }
    bias_filler {
      type: "constant"
      value: 1
    }
  }
}
layers {
  name: "relu5_a"
  type: RELU
  bottom: "conv5_a"
  top: "conv5_a"
}
layers {
  name: "pool5_a"
  type: POOLING
  bottom: "conv5_a"
  top: "pool5_a"
  pooling_param {
    pool: MAX
    kernel_size: 3
    stride: 2
  }
}
layers {
  name: "fc6_a"
  type: INNER_PRODUCT
  bottom: "pool5_a"
  top: "fc6_a"
  blobs_lr: 1
  blobs_lr: 2
  weight_decay: 1
  weight_decay: 0
  inner_product_param {
    num_output: 4096
    weight_filler {
      type: "gaussian"
      std: 0.005
    }
    bias_filler {
      type: "constant"
      value: 1
    }
  }
}
layers {
  name: "relu6_a"
  type: RELU
  bottom: "fc6_a"
  top: "fc6_a"
}
layers {
  name: "drop6_a"
  type: DROPOUT
  bottom: "fc6_a"
  top: "fc6_a"
  dropout_param {
    dropout_ratio: 0.5
  }
}
layers {
  name: "fc7_a"
  type: INNER_PRODUCT
  bottom: "fc6_a"
  top: "fc7_a"
  blobs_lr: 1
  blobs_lr: 2
  weight_decay: 1
  weight_decay: 0
  inner_product_param {
    num_output: 4096
    weight_filler {
      type: "gaussian"
      std: 0.005
    }
    bias_filler {
      type: "constant"
      value: 1
    }
  }
}
layers {
  name: "relu7_a"
  type: RELU
  bottom: "fc7_a"
  top: "fc7_a"
}
layers {
  name: "drop7_a"
  type: DROPOUT
  bottom: "fc7_a"
  top: "fc7_a"
  dropout_param {
    dropout_ratio: 0.5
  }
}
layers {
  name: "fc8_a"
  type: INNER_PRODUCT
  bottom: "fc7_a"
  top: "fc8_a"
  blobs_lr: 1
  blobs_lr: 2
  weight_decay: 1
  weight_decay: 0
  inner_product_param {
    num_output: 205 
    weight_filler {
      type: "gaussian"
      std: 0.01
    }
    bias_filler {
      type: "constant"
      value: 0
    }
  }
}


layers {
  name: "conv1_b"
  type: CONVOLUTION
  bottom: "data_b"
  top: "conv1_b"
  blobs_lr: 1
  blobs_lr: 2
  weight_decay: 1
  weight_decay: 0
  convolution_param {
    num_output: 96
    kernel_size: 11
    stride: 4
    weight_filler {
      type: "gaussian"
      std: 0.01
    }
    bias_filler {
      type: "constant"
      value: 0
    }
  }
}
layers {
  name: "relu1_b"
  type: RELU
  bottom: "conv1_b"
  top: "conv1_b"
}
layers {
  name: "pool1_b"
  type: POOLING
  bottom: "conv1_b"
  top: "pool1_b"
  pooling_param {
    pool: MAX
    kernel_size: 3
    stride: 2
  }
}
layers {
  name: "norm1_b"
  type: LRN
  bottom: "pool1_b"
  top: "norm1_b"
  lrn_param {
    local_size: 5
    alpha: 0.0001
    beta: 0.75
  }
}
layers {
  name: "conv2_b"
  type: CONVOLUTION
  bottom: "norm1_b"
  top: "conv2_b"
  blobs_lr: 1
  blobs_lr: 2
  weight_decay: 1
  weight_decay: 0
  convolution_param {
    num_output: 256
    pad: 2
    kernel_size: 5
    group: 2
    weight_filler {
      type: "gaussian"
      std: 0.01
    }
    bias_filler {
      type: "constant"
      value: 1
    }
  }
}
layers {
  name: "relu2_b"
  type: RELU
  bottom: "conv2_b"
  top: "conv2_b"
}
layers {
  name: "pool2_b"
  type: POOLING
  bottom: "conv2_b"
  top: "pool2_b"
  pooling_param {
    pool: MAX
    kernel_size: 3
    stride: 2
  }
}
layers {
  name: "norm2_b"
  type: LRN
  bottom: "pool2_b"
  top: "norm2_b"
  lrn_param {
    local_size: 5
    alpha: 0.0001
    beta: 0.75
  }
}
layers {
  name: "conv3_b"
  type: CONVOLUTION
  bottom: "norm2_b"
  top: "conv3_b"
  blobs_lr: 1
  blobs_lr: 2
  weight_decay: 1
  weight_decay: 0
  convolution_param {
    num_output: 384
    pad: 1
    kernel_size: 3
    weight_filler {
      type: "gaussian"
      std: 0.01
    }
    bias_filler {
      type: "constant"
      value: 0
    }
  }
}
layers {
  name: "relu3_b"
  type: RELU
  bottom: "conv3_b"
  top: "conv3_b"
}
layers {
  name: "conv4_b"
  type: CONVOLUTION
  bottom: "conv3_b"
  top: "conv4_b"
  blobs_lr: 1
  blobs_lr: 2
  weight_decay: 1
  weight_decay: 0
  convolution_param {
    num_output: 384
    pad: 1
    kernel_size: 3
    group: 2
    weight_filler {
      type: "gaussian"
      std: 0.01
    }
    bias_filler {
      type: "constant"
      value: 1
    }
  }
}
layers {
  name: "relu4_b"
  type: RELU
  bottom: "conv4_b"
  top: "conv4_b"
}
layers {
  name: "conv5_b"
  type: CONVOLUTION
  bottom: "conv4_b"
  top: "conv5_b"
  blobs_lr: 1
  blobs_lr: 2
  weight_decay: 1
  weight_decay: 0
  convolution_param {
    num_output: 256
    pad: 1
    kernel_size: 3
    group: 2
    weight_filler {
      type: "gaussian"
      std: 0.01
    }
    bias_filler {
      type: "constant"
      value: 1
    }
  }
}
layers {
  name: "relu5_b"
  type: RELU
  bottom: "conv5_b"
  top: "conv5_b"
}
layers {
  name: "pool5_b"
  type: POOLING
  bottom: "conv5_b"
  top: "pool5_b"
  pooling_param {
    pool: MAX
    kernel_size: 3
    stride: 2
  }
}
layers {
  name: "fc6_b"
  type: INNER_PRODUCT
  bottom: "pool5_b"
  top: "fc6_b"
  blobs_lr: 1
  blobs_lr: 2
  weight_decay: 1
  weight_decay: 0
  inner_product_param {
    num_output: 4096
    weight_filler {
      type: "gaussian"
      std: 0.005
    }
    bias_filler {
      type: "constant"
      value: 1
    }
  }
}
layers {
  name: "relu6_b"
  type: RELU
  bottom: "fc6_b"
  top: "fc6_b"
}
layers {
  name: "drop6_b"
  type: DROPOUT
  bottom: "fc6_b"
  top: "fc6_b"
  dropout_param {
    dropout_ratio: 0.5
  }
}
layers {
  name: "fc7_b"
  type: INNER_PRODUCT
  bottom: "fc6_b"
  top: "fc7_b"
  blobs_lr: 1
  blobs_lr: 2
  weight_decay: 1
  weight_decay: 0
  inner_product_param {
    num_output: 4096
    weight_filler {
      type: "gaussian"
      std: 0.005
    }
    bias_filler {
      type: "constant"
      value: 1
    }
  }
}
layers {
  name: "relu7_b"
  type: RELU
  bottom: "fc7_b"
  top: "fc7_b"
}
layers {
  name: "drop7_b"
  type: DROPOUT
  bottom: "fc7_b"
  top: "fc7_b"
  dropout_param {
    dropout_ratio: 0.5
  }
}
layers {
  name: "fc8_b"
  type: INNER_PRODUCT
  bottom: "fc7_b"
  top: "fc8_b"
  blobs_lr: 1
  blobs_lr: 2
  weight_decay: 1
  weight_decay: 0
  inner_product_param {
    num_output: 205 
    weight_filler {
      type: "gaussian"
      std: 0.01
    }
    bias_filler {
      type: "constant"
      value: 0
    }
  }
}


layers {
  name: "conv1_c"
  type: CONVOLUTION
  bottom: "data_c"
  top: "conv1_c"
  blobs_lr: 1
  blobs_lr: 2
  weight_decay: 1
  weight_decay: 0
  convolution_param {
    num_output: 96
    kernel_size: 11
    stride: 4
    weight_filler {
      type: "gaussian"
      std: 0.01
    }
    bias_filler {
      type: "constant"
      value: 0
    }
  }
}
layers {
  name: "relu1_c"
  type: RELU
  bottom: "conv1_c"
  top: "conv1_c"
}
layers {
  name: "pool1_c"
  type: POOLING
  bottom: "conv1_c"
  top: "pool1_c"
  pooling_param {
    pool: MAX
    kernel_size: 3
    stride: 2
  }
}
layers {
  name: "norm1_c"
  type: LRN
  bottom: "pool1_c"
  top: "norm1_c"
  lrn_param {
    local_size: 5
    alpha: 0.0001
    beta: 0.75
  }
}
layers {
  name: "conv2_c"
  type: CONVOLUTION
  bottom: "norm1_c"
  top: "conv2_c"
  blobs_lr: 1
  blobs_lr: 2
  weight_decay: 1
  weight_decay: 0
  convolution_param {
    num_output: 256
    pad: 2
    kernel_size: 5
    group: 2
    weight_filler {
      type: "gaussian"
      std: 0.01
    }
    bias_filler {
      type: "constant"
      value: 1
    }
  }
}
layers {
  name: "relu2_c"
  type: RELU
  bottom: "conv2_c"
  top: "conv2_c"
}
layers {
  name: "pool2_c"
  type: POOLING
  bottom: "conv2_c"
  top: "pool2_c"
  pooling_param {
    pool: MAX
    kernel_size: 3
    stride: 2
  }
}
layers {
  name: "norm2_c"
  type: LRN
  bottom: "pool2_c"
  top: "norm2_c"
  lrn_param {
    local_size: 5
    alpha: 0.0001
    beta: 0.75
  }
}
layers {
  name: "conv3_c"
  type: CONVOLUTION
  bottom: "norm2_c"
  top: "conv3_c"
  blobs_lr: 1
  blobs_lr: 2
  weight_decay: 1
  weight_decay: 0
  convolution_param {
    num_output: 384
    pad: 1
    kernel_size: 3
    weight_filler {
      type: "gaussian"
      std: 0.01
    }
    bias_filler {
      type: "constant"
      value: 0
    }
  }
}
layers {
  name: "relu3_c"
  type: RELU
  bottom: "conv3_c"
  top: "conv3_c"
}
layers {
  name: "conv4_c"
  type: CONVOLUTION
  bottom: "conv3_c"
  top: "conv4_c"
  blobs_lr: 1
  blobs_lr: 2
  weight_decay: 1
  weight_decay: 0
  convolution_param {
    num_output: 384
    pad: 1
    kernel_size: 3
    group: 2
    weight_filler {
      type: "gaussian"
      std: 0.01
    }
    bias_filler {
      type: "constant"
      value: 1
    }
  }
}
layers {
  name: "relu4_c"
  type: RELU
  bottom: "conv4_c"
  top: "conv4_c"
}
layers {
  name: "conv5_c"
  type: CONVOLUTION
  bottom: "conv4_c"
  top: "conv5_c"
  blobs_lr: 1
  blobs_lr: 2
  weight_decay: 1
  weight_decay: 0
  convolution_param {
    num_output: 256
    pad: 1
    kernel_size: 3
    group: 2
    weight_filler {
      type: "gaussian"
      std: 0.01
    }
    bias_filler {
      type: "constant"
      value: 1
    }
  }
}
layers {
  name: "relu5_c"
  type: RELU
  bottom: "conv5_c"
  top: "conv5_c"
}
layers {
  name: "pool5_c"
  type: POOLING
  bottom: "conv5_c"
  top: "pool5_c"
  pooling_param {
    pool: MAX
    kernel_size: 3
    stride: 2
  }
}
layers {
  name: "fc6_c"
  type: INNER_PRODUCT
  bottom: "pool5_c"
  top: "fc6_c"
  blobs_lr: 1
  blobs_lr: 2
  weight_decay: 1
  weight_decay: 0
  inner_product_param {
    num_output: 4096
    weight_filler {
      type: "gaussian"
      std: 0.005
    }
    bias_filler {
      type: "constant"
      value: 1
    }
  }
}
layers {
  name: "relu6_c"
  type: RELU
  bottom: "fc6_c"
  top: "fc6_c"
}
layers {
  name: "drop6_c"
  type: DROPOUT
  bottom: "fc6_c"
  top: "fc6_c"
  dropout_param {
    dropout_ratio: 0.5
  }
}
layers {
  name: "fc7_c"
  type: INNER_PRODUCT
  bottom: "fc6_c"
  top: "fc7_c"
  blobs_lr: 1
  blobs_lr: 2
  weight_decay: 1
  weight_decay: 0
  inner_product_param {
    num_output: 4096
    weight_filler {
      type: "gaussian"
      std: 0.005
    }
    bias_filler {
      type: "constant"
      value: 1
    }
  }
}
layers {
  name: "relu7_c"
  type: RELU
  bottom: "fc7_c"
  top: "fc7_c"
}
layers {
  name: "drop7_c"
  type: DROPOUT
  bottom: "fc7_c"
  top: "fc7_c"
  dropout_param {
    dropout_ratio: 0.5
  }
}
layers {
  name: "fc8_c"
  type: INNER_PRODUCT
  bottom: "fc7_c"
  top: "fc8_c"
  blobs_lr: 1
  blobs_lr: 2
  weight_decay: 1
  weight_decay: 0
  inner_product_param {
    num_output: 205 
    weight_filler {
      type: "gaussian"
      std: 0.01
    }
    bias_filler {
      type: "constant"
      value: 0
    }
  }
}


layers {
  name: "concat_ab"
  bottom: "fc8_a"
  bottom: "fc8_b"
  top: "concat_ab"
  type: CONCAT
  concat_param {
    concat_dim: 1
  }
}
layers {
  name: "concat_abc"
  bottom: "concat_ab"
  bottom: "fc8_c"
  top: "concat_abc"
  type: CONCAT
  concat_param {
    concat_dim: 1
  }
}

layers {
  name: "fc9"
  type: INNER_PRODUCT
  bottom: "concat_abc"
  top: "fc9"
  blobs_lr: 1
  blobs_lr: 2
  weight_decay: 1
  weight_decay: 0
  inner_product_param {
    num_output: 205 
    weight_filler {
      type: "gaussian"
      std: 0.01
    }
    bias_filler {
      type: "constant"
      value: 0
    }
  }
}

