name: "MCVPlacesNet"
input: "data_g"
input_dim: 1
input_dim: 3
input_dim: 227 
input_dim: 227


layers {
  name: "conv1_g"
  type: CONVOLUTION
  bottom: "data_g"
  top: "conv1_g"
  convolution_param {
    num_output: 96
    kernel_size: 11
    stride: 4
  }
}
layers {
  name: "relu1_g"
  type: RELU
  bottom: "conv1_g"
  top: "conv1_g"
}
layers {
  name: "pool1_g"
  type: POOLING
  bottom: "conv1_g"
  top: "pool1_g"
  pooling_param {
    pool: MAX
    kernel_size: 3
    stride: 2
  }
}
layers {
  name: "norm1_g"
  type: LRN
  bottom: "pool1_g"
  top: "norm1_g"
  lrn_param {
    local_size: 5
    alpha: 0.0001
    beta: 0.75
  }
}
layers {
  name: "conv2_g"
  type: CONVOLUTION
  bottom: "norm1_g"
  top: "conv2_g"
  convolution_param {
    num_output: 256
    pad: 2
    kernel_size: 5
    group: 2
  }
}
layers {
  name: "relu2_g"
  type: RELU
  bottom: "conv2_g"
  top: "conv2_g"
}
layers {
  name: "pool2_g"
  type: POOLING
  bottom: "conv2_g"
  top: "pool2_g"
  pooling_param {
    pool: MAX
    kernel_size: 3
    stride: 2
  }
}
layers {
  name: "norm2_g"
  type: LRN
  bottom: "pool2_g"
  top: "norm2_g"
  lrn_param {
    local_size: 5
    alpha: 0.0001
    beta: 0.75
  }
}
layers {
  name: "conv3_g"
  type: CONVOLUTION
  bottom: "norm2_g"
  top: "conv3_g"
  convolution_param {
    num_output: 384
    pad: 1
    kernel_size: 3
  }
}
layers {
  name: "relu3_g"
  type: RELU
  bottom: "conv3_g"
  top: "conv3_g"
}
layers {
  name: "conv4_g"
  type: CONVOLUTION
  bottom: "conv3_g"
  top: "conv4_g"
  convolution_param {
    num_output: 384
    pad: 1
    kernel_size: 3
    group: 2
  }
}
layers {
  name: "relu4_g"
  type: RELU
  bottom: "conv4_g"
  top: "conv4_g"
}
layers {
  name: "conv5_g"
  type: CONVOLUTION
  bottom: "conv4_g"
  top: "conv5_g"
  convolution_param {
    num_output: 256
    pad: 1
    kernel_size: 3
    group: 2
  }
}
layers {
  name: "relu5_g"
  type: RELU
  bottom: "conv5_g"
  top: "conv5_g"
}
layers {
  name: "pool5_g"
  type: POOLING
  bottom: "conv5_g"
  top: "pool5_g"
  pooling_param {
    pool: MAX
    kernel_size: 3
    stride: 2
  }
}
layers {
  name: "fc6_g"
  type: INNER_PRODUCT
  bottom: "pool5_g"
  top: "fc6_g"
  inner_product_param {
    num_output: 4096
  }
}
layers {
  name: "relu6_g"
  type: RELU
  bottom: "fc6_g"
  top: "fc6_g"
}
layers {
  name: "drop6_g"
  type: DROPOUT
  bottom: "fc6_g"
  top: "fc6_g"
  dropout_param {
    dropout_ratio: 0.5
  }
}
layers {
  name: "fc7_g"
  type: INNER_PRODUCT
  bottom: "fc6_g"
  top: "fc7_g"
  inner_product_param {
    num_output: 4096
  }
}
layers {
  name: "relu7_g"
  type: RELU
  bottom: "fc7_g"
  top: "fc7_g"
}
layers {
  name: "drop7_g"
  type: DROPOUT
  bottom: "fc7_g"
  top: "fc7_g"
  dropout_param {
    dropout_ratio: 0.5
  }
}
layers {
  name: "fc8_g"
  type: INNER_PRODUCT
  bottom: "fc7_g"
  top: "fc8_g"
  inner_product_param {
    num_output: 205 
  }
}
