name: "MCVPlacesNet"

layers {
  name: "ground"
  type: IMAGE_DATA
  top: "data_g"
  top: "label"
  image_data_param {
    source: "train_ground.txt"
    batch_size: 50 
    new_height: 256
    new_width: 256
  }
  transform_param {
    crop_size: 227
    mean_file: "places205CNN_mean.binaryproto"
    mirror: true
  }
  include: { phase: TRAIN }
}
layers {
  name: "aerial_a"
  type: IMAGE_DATA
  top: "data_a"
  top: "junk_a"
  image_data_param {
    source: "train_aerial_18.txt"
    batch_size: 50 
    new_height: 256
    new_width: 256
  }
  transform_param {
    crop_size: 227
    mean_file: "aerial_mean.binaryproto"
    mirror: true
  }
  include: { phase: TRAIN }
}
layers {
  name: "aerial_b"
  type: IMAGE_DATA
  top: "data_b"
  top: "junk_b"
  image_data_param {
    source: "train_aerial_16.txt"
    batch_size: 50 
    new_height: 256
    new_width: 256
  }
  transform_param {
    crop_size: 227
    mean_file: "aerial_mean.binaryproto"
    mirror: true
  }
  include: { phase: TRAIN }
}
layers {
  name: "aerial_c"
  type: IMAGE_DATA
  top: "data_c"
  top: "junk_c"
  image_data_param {
    source: "train_aerial_14.txt"
    batch_size: 50 
    new_height: 256
    new_width: 256
  }
  transform_param {
    crop_size: 227
    mean_file: "aerial_mean.binaryproto"
    mirror: true
  }
  include: { phase: TRAIN }
}


layers {
  name: "ground"
  type: IMAGE_DATA
  top: "data_g"
  top: "label"
  image_data_param {
    source: "test_ground.txt"
    batch_size: 10 
    new_height: 256
    new_width: 256
  }
  transform_param {
    crop_size: 227
    mean_file: "places205CNN_mean.binaryproto"
    mirror: false 
  }
  include: { phase: TEST }
}
layers {
  name: "aerial_a"
  type: IMAGE_DATA
  top: "data_a"
  top: "junk_a"
  image_data_param {
    source: "test_aerial_18.txt"
    batch_size: 10 
    new_height: 256
    new_width: 256
  }
  transform_param {
    crop_size: 227
    mean_file: "aerial_mean.binaryproto"
    mirror: false
  }
  include: { phase: TEST }
}
layers {
  name: "aerial_b"
  type: IMAGE_DATA
  top: "data_b"
  top: "junk_b"
  image_data_param {
    source: "test_aerial_16.txt"
    batch_size: 10 
    new_height: 256
    new_width: 256
  }
  transform_param {
    crop_size: 227
    mean_file: "aerial_mean.binaryproto"
    mirror: false
  }
  include: { phase: TEST }
}
layers {
  name: "aerial_c"
  type: IMAGE_DATA
  top: "data_c"
  top: "junk_c"
  image_data_param {
    source: "test_aerial_14.txt"
    batch_size: 10 
    new_height: 256
    new_width: 256
  }
  transform_param {
    crop_size: 227
    mean_file: "aerial_mean.binaryproto"
    mirror: false
  }
  include: { phase: TEST }
}


layers {
  name: "silence"
  type: SILENCE
  bottom: "label"
  bottom: "junk_a"
  bottom: "junk_b"
  bottom: "junk_c"
}


layers {
  name: "conv1_g"
  type: CONVOLUTION
  bottom: "data_g"
  top: "conv1_g"
  blobs_lr: 0 
  blobs_lr: 0
  weight_decay: 1
  weight_decay: 0
  convolution_param {
    num_output: 96
    kernel_size: 11
    stride: 4
    weight_filler {
      type: "gaussian"
      std: 0.01
    }
    bias_filler {
      type: "constant"
      value: 0
    }
  }
}
layers {
  name: "relu1_g"
  type: RELU
  bottom: "conv1_g"
  top: "conv1_g"
}
layers {
  name: "pool1_g"
  type: POOLING
  bottom: "conv1_g"
  top: "pool1_g"
  pooling_param {
    pool: MAX
    kernel_size: 3
    stride: 2
  }
}
layers {
  name: "norm1_g"
  type: LRN
  bottom: "pool1_g"
  top: "norm1_g"
  lrn_param {
    local_size: 5
    alpha: 0.0001
    beta: 0.75
  }
}
layers {
  name: "conv2_g"
  type: CONVOLUTION
  bottom: "norm1_g"
  top: "conv2_g"
  blobs_lr: 0
  blobs_lr: 0
  weight_decay: 1
  weight_decay: 0
  convolution_param {
    num_output: 256
    pad: 2
    kernel_size: 5
    group: 2
    weight_filler {
      type: "gaussian"
      std: 0.01
    }
    bias_filler {
      type: "constant"
      value: 1
    }
  }
}
layers {
  name: "relu2_g"
  type: RELU
  bottom: "conv2_g"
  top: "conv2_g"
}
layers {
  name: "pool2_g"
  type: POOLING
  bottom: "conv2_g"
  top: "pool2_g"
  pooling_param {
    pool: MAX
    kernel_size: 3
    stride: 2
  }
}
layers {
  name: "norm2_g"
  type: LRN
  bottom: "pool2_g"
  top: "norm2_g"
  lrn_param {
    local_size: 5
    alpha: 0.0001
    beta: 0.75
  }
}
layers {
  name: "conv3_g"
  type: CONVOLUTION
  bottom: "norm2_g"
  top: "conv3_g"
  blobs_lr: 0
  blobs_lr: 0
  weight_decay: 1
  weight_decay: 0
  convolution_param {
    num_output: 384
    pad: 1
    kernel_size: 3
    weight_filler {
      type: "gaussian"
      std: 0.01
    }
    bias_filler {
      type: "constant"
      value: 0
    }
  }
}
layers {
  name: "relu3_g"
  type: RELU
  bottom: "conv3_g"
  top: "conv3_g"
}
layers {
  name: "conv4_g"
  type: CONVOLUTION
  bottom: "conv3_g"
  top: "conv4_g"
  blobs_lr: 0
  blobs_lr: 0
  weight_decay: 1
  weight_decay: 0
  convolution_param {
    num_output: 384
    pad: 1
    kernel_size: 3
    group: 2
    weight_filler {
      type: "gaussian"
      std: 0.01
    }
    bias_filler {
      type: "constant"
      value: 1
    }
  }
}
layers {
  name: "relu4_g"
  type: RELU
  bottom: "conv4_g"
  top: "conv4_g"
}
layers {
  name: "conv5_g"
  type: CONVOLUTION
  bottom: "conv4_g"
  top: "conv5_g"
  blobs_lr: 0
  blobs_lr: 0
  weight_decay: 1
  weight_decay: 0
  convolution_param {
    num_output: 256
    pad: 1
    kernel_size: 3
    group: 2
    weight_filler {
      type: "gaussian"
      std: 0.01
    }
    bias_filler {
      type: "constant"
      value: 1
    }
  }
}
layers {
  name: "relu5_g"
  type: RELU
  bottom: "conv5_g"
  top: "conv5_g"
}
layers {
  name: "pool5_g"
  type: POOLING
  bottom: "conv5_g"
  top: "pool5_g"
  pooling_param {
    pool: MAX
    kernel_size: 3
    stride: 2
  }
}
layers {
  name: "fc6_g"
  type: INNER_PRODUCT
  bottom: "pool5_g"
  top: "fc6_g"
  blobs_lr: 0
  blobs_lr: 0
  weight_decay: 1
  weight_decay: 0
  inner_product_param {
    num_output: 4096
    weight_filler {
      type: "gaussian"
      std: 0.005
    }
    bias_filler {
      type: "constant"
      value: 1
    }
  }
}
layers {
  name: "relu6_g"
  type: RELU
  bottom: "fc6_g"
  top: "fc6_g"
}
layers {
  name: "drop6_g"
  type: DROPOUT
  bottom: "fc6_g"
  top: "fc6_g"
  dropout_param {
    dropout_ratio: 0.5
  }
}
layers {
  name: "fc7_g"
  type: INNER_PRODUCT
  bottom: "fc6_g"
  top: "fc7_g"
  blobs_lr: 0
  blobs_lr: 0
  weight_decay: 1
  weight_decay: 0
  inner_product_param {
    num_output: 4096
    weight_filler {
      type: "gaussian"
      std: 0.005
    }
    bias_filler {
      type: "constant"
      value: 1
    }
  }
}
layers {
  name: "relu7_g"
  type: RELU
  bottom: "fc7_g"
  top: "fc7_g"
}
layers {
  name: "drop7_g"
  type: DROPOUT
  bottom: "fc7_g"
  top: "fc7_g"
  dropout_param {
    dropout_ratio: 0.5
  }
}
layers {
  name: "fc8_g"
  type: INNER_PRODUCT
  bottom: "fc7_g"
  top: "fc8_g"
  blobs_lr: 0
  blobs_lr: 0
  weight_decay: 1
  weight_decay: 0
  inner_product_param {
    num_output: 205 
    weight_filler {
      type: "gaussian"
      std: 0.01
    }
    bias_filler {
      type: "constant"
      value: 0
    }
  }
}



layers {
  name: "conv1_a"
  type: CONVOLUTION
  bottom: "data_a"
  top: "conv1_a"
  blobs_lr: 1
  blobs_lr: 2
  weight_decay: 1
  weight_decay: 0
  convolution_param {
    num_output: 96
    kernel_size: 11
    stride: 4
    weight_filler {
      type: "gaussian"
      std: 0.01
    }
    bias_filler {
      type: "constant"
      value: 0
    }
  }
}
layers {
  name: "relu1_a"
  type: RELU
  bottom: "conv1_a"
  top: "conv1_a"
}
layers {
  name: "pool1_a"
  type: POOLING
  bottom: "conv1_a"
  top: "pool1_a"
  pooling_param {
    pool: MAX
    kernel_size: 3
    stride: 2
  }
}
layers {
  name: "norm1_a"
  type: LRN
  bottom: "pool1_a"
  top: "norm1_a"
  lrn_param {
    local_size: 5
    alpha: 0.0001
    beta: 0.75
  }
}
layers {
  name: "conv2_a"
  type: CONVOLUTION
  bottom: "norm1_a"
  top: "conv2_a"
  blobs_lr: 1
  blobs_lr: 2
  weight_decay: 1
  weight_decay: 0
  convolution_param {
    num_output: 256
    pad: 2
    kernel_size: 5
    group: 2
    weight_filler {
      type: "gaussian"
      std: 0.01
    }
    bias_filler {
      type: "constant"
      value: 1
    }
  }
}
layers {
  name: "relu2_a"
  type: RELU
  bottom: "conv2_a"
  top: "conv2_a"
}
layers {
  name: "pool2_a"
  type: POOLING
  bottom: "conv2_a"
  top: "pool2_a"
  pooling_param {
    pool: MAX
    kernel_size: 3
    stride: 2
  }
}
layers {
  name: "norm2_a"
  type: LRN
  bottom: "pool2_a"
  top: "norm2_a"
  lrn_param {
    local_size: 5
    alpha: 0.0001
    beta: 0.75
  }
}
layers {
  name: "conv3_a"
  type: CONVOLUTION
  bottom: "norm2_a"
  top: "conv3_a"
  blobs_lr: 1
  blobs_lr: 2
  weight_decay: 1
  weight_decay: 0
  convolution_param {
    num_output: 384
    pad: 1
    kernel_size: 3
    weight_filler {
      type: "gaussian"
      std: 0.01
    }
    bias_filler {
      type: "constant"
      value: 0
    }
  }
}
layers {
  name: "relu3_a"
  type: RELU
  bottom: "conv3_a"
  top: "conv3_a"
}
layers {
  name: "conv4_a"
  type: CONVOLUTION
  bottom: "conv3_a"
  top: "conv4_a"
  blobs_lr: 1
  blobs_lr: 2
  weight_decay: 1
  weight_decay: 0
  convolution_param {
    num_output: 384
    pad: 1
    kernel_size: 3
    group: 2
    weight_filler {
      type: "gaussian"
      std: 0.01
    }
    bias_filler {
      type: "constant"
      value: 1
    }
  }
}
layers {
  name: "relu4_a"
  type: RELU
  bottom: "conv4_a"
  top: "conv4_a"
}
layers {
  name: "conv5_a"
  type: CONVOLUTION
  bottom: "conv4_a"
  top: "conv5_a"
  blobs_lr: 1
  blobs_lr: 2
  weight_decay: 1
  weight_decay: 0
  convolution_param {
    num_output: 256
    pad: 1
    kernel_size: 3
    group: 2
    weight_filler {
      type: "gaussian"
      std: 0.01
    }
    bias_filler {
      type: "constant"
      value: 1
    }
  }
}
layers {
  name: "relu5_a"
  type: RELU
  bottom: "conv5_a"
  top: "conv5_a"
}
layers {
  name: "pool5_a"
  type: POOLING
  bottom: "conv5_a"
  top: "pool5_a"
  pooling_param {
    pool: MAX
    kernel_size: 3
    stride: 2
  }
}
layers {
  name: "fc6_a"
  type: INNER_PRODUCT
  bottom: "pool5_a"
  top: "fc6_a"
  blobs_lr: 1
  blobs_lr: 2
  weight_decay: 1
  weight_decay: 0
  inner_product_param {
    num_output: 4096
    weight_filler {
      type: "gaussian"
      std: 0.005
    }
    bias_filler {
      type: "constant"
      value: 1
    }
  }
}
layers {
  name: "relu6_a"
  type: RELU
  bottom: "fc6_a"
  top: "fc6_a"
}
layers {
  name: "drop6_a"
  type: DROPOUT
  bottom: "fc6_a"
  top: "fc6_a"
  dropout_param {
    dropout_ratio: 0.5
  }
}
layers {
  name: "fc7_a"
  type: INNER_PRODUCT
  bottom: "fc6_a"
  top: "fc7_a"
  blobs_lr: 1
  blobs_lr: 2
  weight_decay: 1
  weight_decay: 0
  inner_product_param {
    num_output: 4096
    weight_filler {
      type: "gaussian"
      std: 0.005
    }
    bias_filler {
      type: "constant"
      value: 1
    }
  }
}
layers {
  name: "relu7_a"
  type: RELU
  bottom: "fc7_a"
  top: "fc7_a"
}
layers {
  name: "drop7_a"
  type: DROPOUT
  bottom: "fc7_a"
  top: "fc7_a"
  dropout_param {
    dropout_ratio: 0.5
  }
}
layers {
  name: "fc8_a"
  type: INNER_PRODUCT
  bottom: "fc7_a"
  top: "fc8_a"
  blobs_lr: 1
  blobs_lr: 2
  weight_decay: 1
  weight_decay: 0
  inner_product_param {
    num_output: 205 
    weight_filler {
      type: "gaussian"
      std: 0.01
    }
    bias_filler {
      type: "constant"
      value: 0
    }
  }
}

layers {
  name: "loss_a"
  type: EUCLIDEAN_LOSS
  bottom: "fc8_g"
  bottom: "fc8_a"
  top: "loss_a"
}


layers {
  name: "conv1_b"
  type: CONVOLUTION
  bottom: "data_b"
  top: "conv1_b"
  blobs_lr: 1
  blobs_lr: 2
  weight_decay: 1
  weight_decay: 0
  convolution_param {
    num_output: 96
    kernel_size: 11
    stride: 4
    weight_filler {
      type: "gaussian"
      std: 0.01
    }
    bias_filler {
      type: "constant"
      value: 0
    }
  }
}
layers {
  name: "relu1_b"
  type: RELU
  bottom: "conv1_b"
  top: "conv1_b"
}
layers {
  name: "pool1_b"
  type: POOLING
  bottom: "conv1_b"
  top: "pool1_b"
  pooling_param {
    pool: MAX
    kernel_size: 3
    stride: 2
  }
}
layers {
  name: "norm1_b"
  type: LRN
  bottom: "pool1_b"
  top: "norm1_b"
  lrn_param {
    local_size: 5
    alpha: 0.0001
    beta: 0.75
  }
}
layers {
  name: "conv2_b"
  type: CONVOLUTION
  bottom: "norm1_b"
  top: "conv2_b"
  blobs_lr: 1
  blobs_lr: 2
  weight_decay: 1
  weight_decay: 0
  convolution_param {
    num_output: 256
    pad: 2
    kernel_size: 5
    group: 2
    weight_filler {
      type: "gaussian"
      std: 0.01
    }
    bias_filler {
      type: "constant"
      value: 1
    }
  }
}
layers {
  name: "relu2_b"
  type: RELU
  bottom: "conv2_b"
  top: "conv2_b"
}
layers {
  name: "pool2_b"
  type: POOLING
  bottom: "conv2_b"
  top: "pool2_b"
  pooling_param {
    pool: MAX
    kernel_size: 3
    stride: 2
  }
}
layers {
  name: "norm2_b"
  type: LRN
  bottom: "pool2_b"
  top: "norm2_b"
  lrn_param {
    local_size: 5
    alpha: 0.0001
    beta: 0.75
  }
}
layers {
  name: "conv3_b"
  type: CONVOLUTION
  bottom: "norm2_b"
  top: "conv3_b"
  blobs_lr: 1
  blobs_lr: 2
  weight_decay: 1
  weight_decay: 0
  convolution_param {
    num_output: 384
    pad: 1
    kernel_size: 3
    weight_filler {
      type: "gaussian"
      std: 0.01
    }
    bias_filler {
      type: "constant"
      value: 0
    }
  }
}
layers {
  name: "relu3_b"
  type: RELU
  bottom: "conv3_b"
  top: "conv3_b"
}
layers {
  name: "conv4_b"
  type: CONVOLUTION
  bottom: "conv3_b"
  top: "conv4_b"
  blobs_lr: 1
  blobs_lr: 2
  weight_decay: 1
  weight_decay: 0
  convolution_param {
    num_output: 384
    pad: 1
    kernel_size: 3
    group: 2
    weight_filler {
      type: "gaussian"
      std: 0.01
    }
    bias_filler {
      type: "constant"
      value: 1
    }
  }
}
layers {
  name: "relu4_b"
  type: RELU
  bottom: "conv4_b"
  top: "conv4_b"
}
layers {
  name: "conv5_b"
  type: CONVOLUTION
  bottom: "conv4_b"
  top: "conv5_b"
  blobs_lr: 1
  blobs_lr: 2
  weight_decay: 1
  weight_decay: 0
  convolution_param {
    num_output: 256
    pad: 1
    kernel_size: 3
    group: 2
    weight_filler {
      type: "gaussian"
      std: 0.01
    }
    bias_filler {
      type: "constant"
      value: 1
    }
  }
}
layers {
  name: "relu5_b"
  type: RELU
  bottom: "conv5_b"
  top: "conv5_b"
}
layers {
  name: "pool5_b"
  type: POOLING
  bottom: "conv5_b"
  top: "pool5_b"
  pooling_param {
    pool: MAX
    kernel_size: 3
    stride: 2
  }
}
layers {
  name: "fc6_b"
  type: INNER_PRODUCT
  bottom: "pool5_b"
  top: "fc6_b"
  blobs_lr: 1
  blobs_lr: 2
  weight_decay: 1
  weight_decay: 0
  inner_product_param {
    num_output: 4096
    weight_filler {
      type: "gaussian"
      std: 0.005
    }
    bias_filler {
      type: "constant"
      value: 1
    }
  }
}
layers {
  name: "relu6_b"
  type: RELU
  bottom: "fc6_b"
  top: "fc6_b"
}
layers {
  name: "drop6_b"
  type: DROPOUT
  bottom: "fc6_b"
  top: "fc6_b"
  dropout_param {
    dropout_ratio: 0.5
  }
}
layers {
  name: "fc7_b"
  type: INNER_PRODUCT
  bottom: "fc6_b"
  top: "fc7_b"
  blobs_lr: 1
  blobs_lr: 2
  weight_decay: 1
  weight_decay: 0
  inner_product_param {
    num_output: 4096
    weight_filler {
      type: "gaussian"
      std: 0.005
    }
    bias_filler {
      type: "constant"
      value: 1
    }
  }
}
layers {
  name: "relu7_b"
  type: RELU
  bottom: "fc7_b"
  top: "fc7_b"
}
layers {
  name: "drop7_b"
  type: DROPOUT
  bottom: "fc7_b"
  top: "fc7_b"
  dropout_param {
    dropout_ratio: 0.5
  }
}
layers {
  name: "fc8_b"
  type: INNER_PRODUCT
  bottom: "fc7_b"
  top: "fc8_b"
  blobs_lr: 1
  blobs_lr: 2
  weight_decay: 1
  weight_decay: 0
  inner_product_param {
    num_output: 205 
    weight_filler {
      type: "gaussian"
      std: 0.01
    }
    bias_filler {
      type: "constant"
      value: 0
    }
  }
}

layers {
  name: "loss_b"
  type: EUCLIDEAN_LOSS
  bottom: "fc8_g"
  bottom: "fc8_b"
  top: "loss_b"
}


layers {
  name: "conv1_c"
  type: CONVOLUTION
  bottom: "data_c"
  top: "conv1_c"
  blobs_lr: 1
  blobs_lr: 2
  weight_decay: 1
  weight_decay: 0
  convolution_param {
    num_output: 96
    kernel_size: 11
    stride: 4
    weight_filler {
      type: "gaussian"
      std: 0.01
    }
    bias_filler {
      type: "constant"
      value: 0
    }
  }
}
layers {
  name: "relu1_c"
  type: RELU
  bottom: "conv1_c"
  top: "conv1_c"
}
layers {
  name: "pool1_c"
  type: POOLING
  bottom: "conv1_c"
  top: "pool1_c"
  pooling_param {
    pool: MAX
    kernel_size: 3
    stride: 2
  }
}
layers {
  name: "norm1_c"
  type: LRN
  bottom: "pool1_c"
  top: "norm1_c"
  lrn_param {
    local_size: 5
    alpha: 0.0001
    beta: 0.75
  }
}
layers {
  name: "conv2_c"
  type: CONVOLUTION
  bottom: "norm1_c"
  top: "conv2_c"
  blobs_lr: 1
  blobs_lr: 2
  weight_decay: 1
  weight_decay: 0
  convolution_param {
    num_output: 256
    pad: 2
    kernel_size: 5
    group: 2
    weight_filler {
      type: "gaussian"
      std: 0.01
    }
    bias_filler {
      type: "constant"
      value: 1
    }
  }
}
layers {
  name: "relu2_c"
  type: RELU
  bottom: "conv2_c"
  top: "conv2_c"
}
layers {
  name: "pool2_c"
  type: POOLING
  bottom: "conv2_c"
  top: "pool2_c"
  pooling_param {
    pool: MAX
    kernel_size: 3
    stride: 2
  }
}
layers {
  name: "norm2_c"
  type: LRN
  bottom: "pool2_c"
  top: "norm2_c"
  lrn_param {
    local_size: 5
    alpha: 0.0001
    beta: 0.75
  }
}
layers {
  name: "conv3_c"
  type: CONVOLUTION
  bottom: "norm2_c"
  top: "conv3_c"
  blobs_lr: 1
  blobs_lr: 2
  weight_decay: 1
  weight_decay: 0
  convolution_param {
    num_output: 384
    pad: 1
    kernel_size: 3
    weight_filler {
      type: "gaussian"
      std: 0.01
    }
    bias_filler {
      type: "constant"
      value: 0
    }
  }
}
layers {
  name: "relu3_c"
  type: RELU
  bottom: "conv3_c"
  top: "conv3_c"
}
layers {
  name: "conv4_c"
  type: CONVOLUTION
  bottom: "conv3_c"
  top: "conv4_c"
  blobs_lr: 1
  blobs_lr: 2
  weight_decay: 1
  weight_decay: 0
  convolution_param {
    num_output: 384
    pad: 1
    kernel_size: 3
    group: 2
    weight_filler {
      type: "gaussian"
      std: 0.01
    }
    bias_filler {
      type: "constant"
      value: 1
    }
  }
}
layers {
  name: "relu4_c"
  type: RELU
  bottom: "conv4_c"
  top: "conv4_c"
}
layers {
  name: "conv5_c"
  type: CONVOLUTION
  bottom: "conv4_c"
  top: "conv5_c"
  blobs_lr: 1
  blobs_lr: 2
  weight_decay: 1
  weight_decay: 0
  convolution_param {
    num_output: 256
    pad: 1
    kernel_size: 3
    group: 2
    weight_filler {
      type: "gaussian"
      std: 0.01
    }
    bias_filler {
      type: "constant"
      value: 1
    }
  }
}
layers {
  name: "relu5_c"
  type: RELU
  bottom: "conv5_c"
  top: "conv5_c"
}
layers {
  name: "pool5_c"
  type: POOLING
  bottom: "conv5_c"
  top: "pool5_c"
  pooling_param {
    pool: MAX
    kernel_size: 3
    stride: 2
  }
}
layers {
  name: "fc6_c"
  type: INNER_PRODUCT
  bottom: "pool5_c"
  top: "fc6_c"
  blobs_lr: 1
  blobs_lr: 2
  weight_decay: 1
  weight_decay: 0
  inner_product_param {
    num_output: 4096
    weight_filler {
      type: "gaussian"
      std: 0.005
    }
    bias_filler {
      type: "constant"
      value: 1
    }
  }
}
layers {
  name: "relu6_c"
  type: RELU
  bottom: "fc6_c"
  top: "fc6_c"
}
layers {
  name: "drop6_c"
  type: DROPOUT
  bottom: "fc6_c"
  top: "fc6_c"
  dropout_param {
    dropout_ratio: 0.5
  }
}
layers {
  name: "fc7_c"
  type: INNER_PRODUCT
  bottom: "fc6_c"
  top: "fc7_c"
  blobs_lr: 1
  blobs_lr: 2
  weight_decay: 1
  weight_decay: 0
  inner_product_param {
    num_output: 4096
    weight_filler {
      type: "gaussian"
      std: 0.005
    }
    bias_filler {
      type: "constant"
      value: 1
    }
  }
}
layers {
  name: "relu7_c"
  type: RELU
  bottom: "fc7_c"
  top: "fc7_c"
}
layers {
  name: "drop7_c"
  type: DROPOUT
  bottom: "fc7_c"
  top: "fc7_c"
  dropout_param {
    dropout_ratio: 0.5
  }
}
layers {
  name: "fc8_c"
  type: INNER_PRODUCT
  bottom: "fc7_c"
  top: "fc8_c"
  blobs_lr: 1
  blobs_lr: 2
  weight_decay: 1
  weight_decay: 0
  inner_product_param {
    num_output: 205 
    weight_filler {
      type: "gaussian"
      std: 0.01
    }
    bias_filler {
      type: "constant"
      value: 0
    }
  }
}

layers {
  name: "loss_c"
  type: EUCLIDEAN_LOSS
  bottom: "fc8_g"
  bottom: "fc8_c"
  top: "loss_c"
}


layers {
  name: "concat_ab"
  bottom: "fc8_a"
  bottom: "fc8_b"
  top: "concat_ab"
  type: CONCAT
  concat_param {
    concat_dim: 1
  }
}
layers {
  name: "concat_abc"
  bottom: "concat_ab"
  bottom: "fc8_c"
  top: "concat_abc"
  type: CONCAT
  concat_param {
    concat_dim: 1
  }
}

layers {
  name: "fc9"
  type: INNER_PRODUCT
  bottom: "concat_abc"
  top: "fc9"
  blobs_lr: 1
  blobs_lr: 2
  weight_decay: 1
  weight_decay: 0
  inner_product_param {
    num_output: 205 
    weight_filler {
      type: "gaussian"
      std: 0.01
    }
    bias_filler {
      type: "constant"
      value: 0
    }
  }
}

layers {
  name: "loss"
  type: EUCLIDEAN_LOSS
  bottom: "fc8_g"
  bottom: "fc9"
  top: "loss"
}
